…
an><br><span class="hljs-params">                 seq_len=<span class="hljs-number">256</span>,</span><br><span class="hljs-params">                 num_layers=<span class="hljs-number">6</span></span>):<br><br>        num_patches = (image_size / patch_size) ** <span class="hljs-number">2</span>    <span class="hljs-comment"># 256</span><br>        <span class="hljs-built_in">super</span>().__init__(d_model, d_ffn, seq_len, num_layers)<br>        self.patcher = nn.Conv2d(<br>            in_channels, d_model, kernel_size=patch_size, stride=patch_size<br>        )   <span class="hljs-comment"># [2, 3, 256, 256] -&gt; [2, 256, 16, 16]</span><br>        self.classifier = nn.Linear(d_model, num_classes)<br><br>    <span class="hljs-keyword">def</span> <span class="hljs-title function_">forward</span>(<span class="hljs-params">self, x</span>):<br>        <span class="hljs-comment"># [2, 3, 256, 256] -&gt; [2, 256, 16, 16]</span><br>        patches = self.patcher(x)<br>        batch_size, num_channels, _, _ = patches.shape<br>        patches = patches.permute(<span class="hljs-number">0</span>, <span class="hljs-number">2</span>, <span class="hljs-number">3</span>, <span class="hljs-number">1</span>)   <span class="hljs-comment"># [2, 256, 16, 16] -&gt; [2, 16, 16, 256]</span><br>        patches = patches.view(batch_size, -<span class="hljs-number">1</span>, num_channels)    <span class="hljs-comment"># [2, 256, 256]</span><br>        <span class="hljs-comment"># [2, 256, 256]</span><br>        embedding = self.model(patches)<br>        <span class="hljs-comment"># [2, 256, 256] -&gt; [2, 256]</span><br>        embedding = embedding.mean(dim=<span class="hljs-number">1</span>)<br>        <span class="hljs-comment"># [2, 256] -&gt; [2, 1000]</span><br>        out = self.classifier(embedding)<br>        <span class="hljs-keyword">return</span> out<br><br><br><span class="hljs-keyword">if</span> __name__ == <span class="hljs-string">&#x27;__main__&#x27;</span>:<br>    device = torch.device(<span class="hljs-string">&quot;cuda:0&quot;</span> <span class="hljs-keyword">if</span> torch.cuda.is_available() <span class="hljs-k
…
e">16</span><br><span class="line">17</span><br><span class="line">18</span><br><span class="line">19</span><br><span class="line">20</span><br><span class="line">21</span><br><span class="line">22</span><br><span class="line">23</span><br><span class="line">24</span><br></pre></div></td><td class="code"><div class="hljs code-wrapper"><pre><code class="hljs shell">----------------------------------------------------------------<br>        Layer (type)               Output Shape         Param #<br>================================================================<br>            Conv2d-1          [-1, 512, 14, 14]         393,728<br>         Rearrange-2             [-1, 196, 512]               0<br>         LayerNorm-3             [-1, 196, 512]           1,024<br>         Rearrange-4             [-1, 512, 196]               0<br>            Linear-5             [-1, 512, 256]          50,432<br>              GELU-6             [-1, 512, 256]               0<br>           Dropout-7             [-1, 512, 256]               0<br>            Linear-8             [-1, 512, 196]          50,372<br>           Dropout-9             [-1, 512, 196]               0<br>      FeedForward-10             [-1, 512, 196]               0<br>        Rearrange-11             [-1, 196, 512]               0<br>        LayerNorm-12             [-1, 196, 512]           1,024<br>           Linear-13            [-1, 196, 2048]       1,050,624<br>             GELU-14            [-1, 196, 2048]               0<br>          Dropout-15            [-1, 196, 2048]               0<br>           Linear-16             [-1, 196, 512]       1,049,088<br>          Dropout-17             [-1, 196, 512]               0<br>      FeedForward-18             [-1, 196, 512]               0<br>       MixerBlock-19             [-1, 196, 512]               0<br>        LayerNorm-20             [-1, 196, 512]           1,024<br>           Linear-21                 [-1, 1000]         513,000<br></code></pre></div></td></tr></table></figure>]]></content>
    
    
    <categories>
      
      <category>Deep Learning</category>
      
      <category>cv</category>
      
    </categories>
    
    
  </entry>
  
  
  
  <entry>
    <title>CoAtNet</title>
    <link href="/2022/11/06/CoAtNet/"/>
    <url>/2022/11/06/CoAtNet/</url>
    
    <content type="html"><![CDATA[<ul><li>CoAtNet: 
…
